name: "rgb_vgg16_lrcn"

layer {
  name: "data"
  type: "VideoSeqData"
  top: "data"
  top: "cm_label"
  video_data_param {
    root_folder: "/scratch/xiaoyang/UCF101_frames_org2/"
    source: "../dataset_file_examples/train_split1_avi.txt"
    batch_size: 8
    new_width: 340
    new_height: 256
    new_length: 1
    num_segments: 15
    modality: RGB
  }
  transform_param{
    crop_size: 224
    mirror: true
    fix_crop: true
    multi_scale: true
    max_distort: 1
    scale_ratios: [1,0.875,0.75,0.66]
    mean_value: [104, 117, 123, 104, 117, 123, 104, 117, 123, 104, 117, 123, 104, 117, 123, 104, 117, 123, 104, 117, 123, 104, 117, 123, 104, 117, 123, 104, 117, 123, 104, 117, 123, 104, 117, 123, 104, 117, 123, 104, 117, 123, 104, 117, 123]
   }
  include: { phase: TRAIN }
}
layer {
  name: "data"
  type: "VideoSeqData"
  top: "data"
  top: "cm_label"
  video_data_param {
    root_folder: "/scratch/xiaoyang/UCF101_frames_org2/"
    source: "../dataset_file_examples/val_split1_avi.txt"
    batch_size: 1
    new_length: 1
    new_height: 256
    new_width: 340
    num_segments: 15
    modality: RGB
  }
  transform_param{
    crop_size: 224
    mirror: false
    mean_value: [104, 117, 123, 104, 117, 123, 104, 117, 123, 104, 117, 123, 104, 117, 123, 104, 117, 123, 104, 117, 123, 104, 117, 123, 104, 117, 123, 104, 117, 123, 104, 117, 123, 104, 117, 123, 104, 117, 123, 104, 117, 123, 104, 117, 123]
  }
  include: { phase: TEST }
}
layer {
  name: "clip-cm-label"
  type: "Slice"
  bottom: "cm_label"
  top: "label"
  top: "clip_markers"
  slice_param {
    axis: 0
    slice_point: 15
  }
}
layer {
  name: "conv1_1"
  type: "Convolution"
  bottom: "data"
  top: "conv1_1"
  convolution_param {
    num_output: 64
    pad: 1
    kernel_size: 3
  }
}
layer {
  name: "relu1_1"
  type: "ReLU"
  bottom: "conv1_1"
  top: "conv1_1"
}
layer {
  name: "conv1_2"
  type: "Convolution"
  bottom: "conv1_1"
  top: "conv1_2"
  convolution_param {
    num_output: 64
    pad: 1
    kernel_size: 3
  }
}
layer {
  name: "relu1_2"
  type: "ReLU"
  bottom: "conv1_2"
  top: "conv1_2"
}
layer {
  name: "pool1"
  type: "Pooling"
  bottom: "conv1_2"
  top: "pool1"
  pooling_param {
    pool: MAX
    kernel_size: 2
    stride: 2
  }
}
layer {
  name: "conv2_1"
  type: "Convolution"
  bottom: "pool1"
  top: "conv2_1"
  convolution_param {
    num_output: 128
    pad: 1
    kernel_size: 3
  }
}
layer {
  name: "relu2_1"
  type: "ReLU"
  bottom: "conv2_1"
  top: "conv2_1"
}
layer {
  name: "conv2_2"
  type: "Convolution"
  bottom: "conv2_1"
  top: "conv2_2"
  convolution_param {
    num_output: 128
    pad: 1
    kernel_size: 3
  }
}
layer {
  name: "relu2_2"
  type: "ReLU"
  bottom: "conv2_2"
  top: "conv2_2"
}
layer {
  name: "pool2"
  type: "Pooling"
  bottom: "conv2_2"
  top: "pool2"
  pooling_param {
    pool: MAX
    kernel_size: 2
    stride: 2
  }
}
layer {
  name: "conv3_1"
  type: "Convolution"
  bottom: "pool2"
  top: "conv3_1"
  convolution_param {
    num_output: 256
    pad: 1
    kernel_size: 3
  }
}
layer {
  name: "relu3_1"
  type: "ReLU"
  bottom: "conv3_1"
  top: "conv3_1"
}
layer {
  name: "conv3_2"
  type: "Convolution"
  bottom: "conv3_1"
  top: "conv3_2"
  convolution_param {
    num_output: 256
    pad: 1
    kernel_size: 3
  }
}
layer {
  name: "relu3_2"
  type: "ReLU"
  bottom: "conv3_2"
  top: "conv3_2"
}
layer {
  name: "conv3_3"
  type: "Convolution"
  bottom: "conv3_2"
  top: "conv3_3"
  convolution_param {
    num_output: 256
    pad: 1
    kernel_size: 3
  }
}
layer {
  name: "relu3_3"
  type: "ReLU"
  bottom: "conv3_3"
  top: "conv3_3"
}
layer {
  name: "pool3"
  type: "Pooling"
  bottom: "conv3_3"
  top: "pool3"
  pooling_param {
    pool: MAX
    kernel_size: 2
    stride: 2
  }
}
layer {
  name: "conv4_1"
  type: "Convolution"
  bottom: "pool3"
  top: "conv4_1"
  convolution_param {
    num_output: 512
    pad: 1
    kernel_size: 3
  }
}
layer {
  name: "relu4_1"
  type: "ReLU"
  bottom: "conv4_1"
  top: "conv4_1"
}
layer {
  name: "conv4_2"
  type: "Convolution"
  bottom: "conv4_1"
  top: "conv4_2"
  convolution_param {
    num_output: 512
    pad: 1
    kernel_size: 3
  }
}
layer {
  name: "relu4_2"
  type: "ReLU"
  bottom: "conv4_2"
  top: "conv4_2"
}
layer {
  name: "conv4_3"
  type: "Convolution"
  bottom: "conv4_2"
  top: "conv4_3"
  convolution_param {
    num_output: 512
    pad: 1
    kernel_size: 3
  }
}
layer {
  name: "relu4_3"
  type: "ReLU"
  bottom: "conv4_3"
  top: "conv4_3"
}
layer {
  name: "pool4"
  type: "Pooling"
  bottom: "conv4_3"
  top: "pool4"
  pooling_param {
    pool: MAX
    kernel_size: 2
    stride: 2
  }
}
layer {
  name: "conv5_1"
  type: "Convolution"
  bottom: "pool4"
  top: "conv5_1"
  convolution_param {
    num_output: 512
    pad: 1
    kernel_size: 3
  }
}
layer {
  name: "relu5_1"
  type: "ReLU"
  bottom: "conv5_1"
  top: "conv5_1"
}
layer {
  name: "conv5_2"
  type: "Convolution"
  bottom: "conv5_1"
  top: "conv5_2"
  convolution_param {
    num_output: 512
    pad: 1
    kernel_size: 3
  }
}
layer {
  name: "relu5_2"
  type: "ReLU"
  bottom: "conv5_2"
  top: "conv5_2"
}
layer {
  name: "conv5_3"
  type: "Convolution"
  bottom: "conv5_2"
  top: "conv5_3"
  convolution_param {
    num_output: 512
    pad: 1
    kernel_size: 3
  }
}
layer {
  name: "relu5_3"
  type: "ReLU"
  bottom: "conv5_3"
  top: "conv5_3"
}
layer {
  name: "pool5"
  type: "Pooling"
  bottom: "conv5_3"
  top: "pool5"
  pooling_param {
    pool: MAX
    kernel_size: 2
    stride: 2
  }
}
layer {
  name: "fc6"
  type: "InnerProduct"
  bottom: "pool5"
  top: "fc6"
  inner_product_param {
    num_output: 4096
  }
}
layer {
  name: "relu6"
  type: "ReLU"
  bottom: "fc6"
  top: "fc6"
}
layer {
  name: "drop6"
  type: "Dropout"
  bottom: "fc6"
  top: "fc6"
  dropout_param {
    dropout_ratio: 0.5
  }
  propagate_down: false
}
# seq_length*batch_size, 4096
layer{
  name: "reshape-fc6"
  type: "Reshape"
  bottom: "fc6"
  top: "fc6-reshape"
  reshape_param{
    shape{
      dim: 15 # SEQ_LENGTH
      dim: -1 # BATCH_SIZE
      dim: 4096 # FEATURE_SIZE
    }
  }
}
# fc6-reshape: seq_length, batch_size, 4096
layer {
  name: "lstm1"
  type: "LSTM"
  bottom: "fc6-reshape"
  bottom: "clip_markers"
  top: "lstm1"
  recurrent_param {
    num_output: 256
    weight_filler {
      type: "uniform"
      min: -0.01
      max: 0.01
    }
    bias_filler {
      type: "constant"
      value: 0
    }
  }
}
layer {
  name: "lstm1-drop"
  type: "Dropout"
  bottom: "lstm1"
  top: "lstm1-drop"
  dropout_param {
    dropout_ratio: 0.5
  }
}
layer {
  name: "fc8-lrcn"
  type: "InnerProduct"
  bottom: "lstm1-drop"
  top: "fc8-lrcn"
  param {
    lr_mult: 10
    decay_mult: 1
  }
  param {
    lr_mult: 20
    decay_mult: 0
  }
  inner_product_param {
    num_output: 101
    weight_filler {
      type: "gaussian"
      std: 0.01
    }
    bias_filler {
      type: "constant"
      value: 0
    }
    axis: 2
  }
}
layer {
  name: "loss"
  type: "SoftmaxWithLoss"
  bottom: "fc8-lrcn"
  bottom: "label"
  top: "loss"
  softmax_param {
    axis: 2
  }
}
layer {
  name: "accuracy"
  type: "Accuracy"
  bottom: "fc8-lrcn"
  bottom: "label"
  top: "accuracy"
  accuracy_param {
    axis: 2
  }
}
